example_model_state_dict.pth (torch, 218985 bytes, 20 tensors)

conv1.weight f4 [32, 1, 3, 3]
000000 8a ae 52 3e 95 ba 45 be dc 18 a4 bd 95 65 4c 3e
       0.20574394 -0.19309457 -0.08012554 0.19960625
000010 68 81 a6 be 2d cc 73 3e 82 ff 7e bd e2 46 2b 3e
       -0.32520604 0.23808356 -0.06225539 0.16726258
000020 bd 5a b7 3d e7 96 01 bd 18 7f f3 3d b7 5b 4e 3d
       0.08952854 -0.031638052 0.118894756 0.050380435
000030 b9 24 f9 3d 60 29 3a be 7b ca 98 bd 98 f1 e8 bc
       0.121652074 -0.18179846 -0.07460495 -0.028435513
000040 58 71 64 bc c2 56 9b 3c d9 46 a4 3e c1 e1 03 3e
       -0.013943039 0.018962268 0.32085302 0.12879087
000050 87 87 e9 bd 93 30 67 be 0d 11 c8 bd 4f d7 13 be
       -0.11402803 -0.22577123 -0.09768877 -0.14437602
000060 69 d5 11 be d9 f6 cf 3c 1f 84 7b 3e 4d 5f 6c 3e
       -0.14241566 0.02538626 0.24562119 0.2308323
000070 fa 20 83 be d1 97 83 3e 93 c4 fc 3d 11 76 c1 3e
       -0.25611097 0.25701764 0.12342181 0.3778539
000080 52 4e 93 3e 38 9a c8 be cd 16 d7 be 5a c8 21 be
       0.2877069 -0.3918016 -0.42009583 -0.15799084
000090 38 c0 a7 3e b1 ee fa bb 9e 12 fb 3d 2c fc b3 bd
       0.3276384 -0.0076578488 0.1225941 -0.08788332
0000a0 01 15 b7 3e 5a f3 7c be 47 eb 8e 3e 8f 7f 94 3c
       0.35758212 -0.24702206 0.27913877 0.01812723
0000b0 45 97 9c be 7d e0 65 3e e0 90 29 be fd bd d8 3d
       -0.3058416 0.22448917 -0.16559172 0.105831124
0000c0 84 c3 04 be b6 66 ac bd e8 ea 95 be df f2 75 be
       -0.12965208 -0.08418028 -0.29280782 -0.24018429
0000d0 01 51 23 3e 4e d9 d7 3b 48 78 b7 3e 4a fb 89 3e
       0.1594887 0.006587184 0.35833955 0.2694953
0000e0 d5 8e eb bd fc d6 66 be cc 3a 48 3e 35 9b 8d 3d
       -0.115018524 -0.22542948 0.19553679 0.06914369
0000f0 d5 25 a2 be bd 7c 62 3e e4 0e 56 3e 02 3f a5 3e
       -0.3166949 0.22117896 0.20904118 0.32274634
000100 6b 86 34 be 29 d5 ee bd a0 25 32 3d 51 26 00 3e
       -0.17629401 -0.11661751 0.043492913 0.12514617
000110 fc 2c 34 be dc 99 5a be 45 85 83 3e 19 fb 12 3d
       -0.17595285 -0.21347755 0.25687614 0.035883997
000120 90 a4 30 3e 32 5a d0 3c 91 ef c7 3d 50 70 5d 3d
       0.17250276 0.025433633 0.097624905 0.054062188
000130 ea b3 05 3e db 05 2b 3e 48 59 d3 be 2d 49 09 3e
       0.13056913 0.16701452 -0.41279054 0.1340682
000140 d0 1e 7f be 93 1b 82 be 48 4b fa bb e4 d2 88 bd
       -0.24914098 -0.25411662 -0.0076383688 -0.06680849
000150 43 f9 75 3e 88 93 32 be c5 44 88 be b8 cb 94 3e
       0.24020867 -0.17439091 -0.26614967 0.29061675
000160 d7 59 a7 3c 68 ec 67 3e e4 d6 66 3e f2 b3 84 be
       0.020428581 0.22648776 0.22542912 -0.25918537
000170 a2 07 54 bd ff 78 60 3e b5 a3 4e be 19 69 4f be
       -0.05176509 0.21921156 -0.20179637 -0.20254935
000180 c7 02 5a 3e 2f 2a 12 3e 9d 16 e0 bc 92 46 d3 bd
       0.21290122 0.14273904 -0.027354533 -0.103161946
000190 74 4a a3 3e a8 77 fa bd a2 64 45 3e 99 5c 29 3e
       0.3189274 -0.12229854 0.1927667 0.1653923
0001a0 59 d9 8f be a7 8c a6 be 11 6f a6 3e bd dc 36 b9
       -0.2809551 -0.32529184 0.32506612 -0.00017439104
0001b0 48 92 85 3e 8e 37 a3 3d 2c 8a 8c 3d 13 79 86 3e
       0.26088166 0.079695806 0.06862292 0.26264247
0001c0 07 b7 a7 3e 23 44 68 be 65 56 55 3d 67 0a 9c 3e
       0.32756826 -0.22682242 0.052084345 0.30476686
0001d0 fe 17 80 3e 21 28 1a 3e 95 2c b4 be c1 11 b3 be
       0.25018305 0.1505437 -0.35190263 -0.34974483
0001e0 75 c7 91 be f3 2e 32 3d e3 75 dd 3e 59 78 eb bd
       -0.28472486 0.043501806 0.43254003 -0.11497564
0001f0 2d b6 9f 3e 2c 53 93 bd ef a2 c5 be 70 7f eb bd
       0.31193677 -0.07193598 -0.3860087 -0.11498916
000200 82 d7 f6 3d 0d 53 b2 3e 79 0f 28 be 4c 54 91 3d
       0.120528236 0.34828988 -0.16412152 0.070961565
000210 0a 52 9b 3e ee 10 5a 3e 81 4f 3a 3e 57 50 93 3e
       0.30336028 0.2129552 0.18194391 0.28772232
000220 25 40 a3 3e be ae 48 3e de 7c 80 be b9 a1 6f be
       0.31884876 0.19597909 -0.25095266 -0.23401536
000230 7a 6f dd bd e9 9c 44 bd 8f eb 67 be 30 d4 b9 3d
       -0.10812278 -0.048001204 -0.22648452 0.09073675
000240 8c 87 f6 3d 68 28 1f bd ee a8 b7 3d b9 42 c8 3d
       0.12037572 -0.038856894 0.08967768 0.09778351
000250 8e 81 6f 3e a9 07 79 3e f8 c3 0a be 40 f9 ae 3e
       0.23389265 0.24319328 -0.13551319 0.34174538
000260 6a 0a 33 bd d3 f1 cf 3b d5 7d aa be 8a 31 77 be
       -0.043711103 0.0063459664 -0.33299127 -0.24139991
000270 7b 65 62 be 31 40 1b be 7c c9 a4 3e 32 6d 1b be
       -0.22109024 -0.15161206 0.3218497 -0.15178373
000280 eb a8 65 be 93 a7 59 3e 4e 14 54 3e 3e 9a bb 3e
       -0.22427718 0.2125533 0.2071087 0.36641115
000290 4e 01 03 3d a7 9b 17 3e c1 f9 7b 3d 70 f8 bf 3b
       0.031983666 0.1480547 0.06151748 0.0058584735
0002a0 c8 8f d6 be 7e cb 80 be fa 49 28 be 33 86 18 3e
       -0.4190657 -0.25155252 -0.1643447 0.14894943
0002b0 5c 70 f4 3d 5d 35 01 3e 1c fa c6 3e 75 f3 b3 3e
       0.11935493 0.12618013 0.38862693 0.3514668
0002c0 26 66 87 3e 89 2d 44 3d c9 10 58 be 1c 95 8c 3e
       0.2644512 0.04789499 -0.21100153 0.2745751
0002d0 9a d9 a1 bd d3 8f 68 bd 23 7b 98 be 07 99 af bd
       -0.07902832 -0.056777786 -0.29781446 -0.085741095
0002e0 15 55 81 be fe c0 9a 3e d5 1c 9c be c0 32 89 be
       -0.25260225 0.30225366 -0.30490747 -0.26796532
0002f0 77 dc f8 3c 29 ff 71 be 83 9d 0e 3e b1 a0 b8 bd
       0.030378563 -0.23632492 0.13927273 -0.090150245
000300 be 52 6c be db e8 cf 3c 17 ac 77 3e f6 28 a9 be
       -0.23078439 0.025379589 0.24186741 -0.33039063
000310 a9 5e 0a 3e 37 ab 68 3e 8c cf b3 3e da 96 5c be
       0.13512672 0.22721563 0.35119283 -0.2154192
000320 e9 7e 10 3d 13 44 6c be 9a a6 a3 3e 95 23 24 be
       0.03527728 -0.23072843 0.31963044 -0.16029198
000330 95 a2 49 3e 2b 88 6f 3d 73 75 54 bd e5 75 10 3d
       0.19690926 0.05847947 -0.05186982 0.035268683
000340 f4 d6 28 3d 9c 9c bb 3d 90 84 87 3d c3 5c 8b 3d
       0.04122062 0.0916073 0.06617081 0.06804802
000350 02 aa c1 be a6 9b 68 3e 8a 45 8e 3e ea d9 5f 3e
       -0.37825018 0.22715625 0.2778743 0.21860471
000360 bf 9d aa 3e 03 85 b0 be 29 f6 44 be 5e 81 8a 3e
       0.33323476 -0.3447648 -0.19234528 0.27051824
000370 cc 4a 02 bf 76 4a 9e 3e f3 56 b4 be cc 62 d4 be
       -0.5089538 0.30916184 -0.35222587 -0.41481626
000380 a0 4d 72 3e c7 8d c1 be 4b 1b dc bd 3d 1a 80 3e
       0.23662424 -0.3780348 -0.10747393 0.25020018
000390 13 56 8e 3e 80 11 ae 3e 8d 8e 88 bd 03 63 67 be
       0.27800044 0.33997726 -0.066678144 -0.22596364
0003a0 81 a6 a2 3e 19 f9 26 be 2c c1 f3 bd 07 88 2e 3d
       0.31767657 -0.1630596 -0.11902079 0.042610195
0003b0 93 b6 85 be b3 60 41 3e 3b 93 a0 3d ed 8c 9d be
       -0.26115856 0.18884544 0.07840582 -0.3077158
0003c0 71 b6 90 be ee 55 ef bd 56 23 d2 3d 50 c4 c6 3b
       -0.28264192 -0.11686312 0.10260646 0.0060658827
0003d0 74 95 3a be f8 36 af 3d bd 8e 6c be eb b2 6f be
       -0.18221074 0.08555406 -0.23101325 -0.23408096
0003e0 db 81 04 be d4 8f c1 3e e4 15 ca 3e 7c 9b 53 3b
       -0.12940161 0.37805045 0.39469826 0.003228872
0003f0 43 58 4c 3d dc ef 75 3e 03 34 e5 3d 5b 9f fa bd
       0.04988886 0.2401728 0.11191561 -0.12237426

conv1.bias f4 [32]
000000 47 0e ff bc 26 0b 60 3d 18 7c 12 3b 60 67 2c be
       -0.031134738 0.054698132 0.0022351798 -0.1683631
000010 c6 49 2a 3e 0d 7b 2e 3e 0b cf bb 3c 4a 8c 32 be
       0.16629705 0.17039128 0.022925874 -0.17436329
000020 c4 3e eb bd 1e 55 fb ba 4c 56 11 be 1a 86 3d be
       -0.11486581 -0.0019175147 -0.14193076 -0.18508187
000030 86 75 7c bd 8c a9 d1 bd 79 74 57 3d 2b 20 92 bd
       -0.061635517 -0.102374166 0.05260131 -0.07135042
000040 6d 5a bc bd 86 96 e1 bd 4a 6b 73 be ec ab a4 3e
       -0.09196935 -0.11015038 -0.23771396 0.32162416
000050 c5 af 97 3d 8f 5a 7f 3e 0e 86 57 bd 23 81 2c be
       0.07406572 0.24936889 -0.05261808 -0.16846137
000060 fb f8 89 be 9d 92 00 be d4 f7 52 3e b5 76 81 be
       -0.2694777 -0.12555929 0.20602351 -0.2528588
000070 11 ab ed bd 39 cc a3 3d 58 ce 09 3e d3 c7 ca 3d
       -0.11604894 0.07997937 0.1345762 0.09901395

conv2.weight f4 [32, 32, 3, 3]
000000 79 e2 3a 3c 89 44 e3 3b 88 e0 93 ba 53 c5 51 bc
       0.011406534 0.0069356603 -0.0011282125 -0.012803393
000010 eb 7e 19 3d 31 e2 13 3c 44 01 d1 bc 81 97 87 bc
       0.037474554 0.009026096 -0.025513299 -0.016551735
000020 bd 74 d4 bc 82 ba 36 bc be d1 c2 3c e2 61 56 3d
       -0.025934571 -0.011152865 0.023781653 0.052339442
000030 9c b2 65 3d 1a f4 64 bd 6e 22 73 3c 29 7c 19 3c
       0.05607854 -0.055896856 0.014839752 0.009367981
000040 c0 65 12 bc 64 75 0d bd 0a 00 4e 3d d9 b6 29 bb
       -0.008935392 -0.03453578 0.050293006 -0.002589634
000050 8d 8d c3 3a 2b b8 bb bb cb bd 05 bd c9 8b af 3d
       0.0014919505 -0.0057287416 -0.032651704 0.08571584
000060 92 76 8a 3c e0 f9 17 3c 4a 50 b7 3c 58 51 9f 3b
       0.016902242 0.009275883 0.022377152 0.004861992
000070 60 e7 a3 bd 94 7c 3f bd 96 ab e4 3d c2 f2 83 3d
       -0.08003116 -0.046749666 0.1116554 0.06442787
000080 1a cf 3a 3c 4b 14 65 bc b0 05 94 3d 4a fd bc 3d
       0.011401916 -0.013981889 0.07227647 0.092279986
000090 f9 22 3f 3d 38 c5 27 3b 31 09 bf 3c 5a c3 9c bc
       0.046664212 0.002559973 0.023319812 -0.01913612
0000a0 58 ef 26 bd d5 03 8c bd 67 b0 f6 3c 1e cc bb bb
       -0.0407556 -0.068366684 0.030113412 -0.00573112
0000b0 da 82 13 3c 9d e1 15 bc 95 25 ab bd 40 22 04 bd
       0.009003365 -0.009148029 -0.083567776 -0.032259226
0000c0 06 03 16 3c 25 5d 4c bd fa 1e b1 bd 92 40 ef 3c
       0.009155994 -0.049893517 -0.086484864 0.029205594
0000d0 7e 03 18 3c 44 d4 ff bc d5 aa d1 3c 98 1c a8 3a
       0.009278176 -0.031229146 0.025594154 0.0012825904
0000e0 b2 82 58 bd bb 09 a2 3d 61 fb 64 3d 15 49 79 3c
       -0.052859016 0.07912012 0.055903796 0.015215178
0000f0 52 74 af bc 5b ca 0d bd 42 17 9e 3d 25 63 96 3d
       -0.02141777 -0.03461681 0.0771928 0.07343129
000100 04 b2 00 3c 48 a4 a8 3c 08 38 5d 3d ab b4 73 3d
       0.007854942 0.020586148 0.054008514 0.05949847
000110 5c 57 3a 3d 3b 02 0a bd 65 4c cd 3b 17 68 b3 3d
       0.04549347 -0.033693533 0.0062652105 0.08760088
000120 d9 96 ea ba 2b 41 66 bd a1 62 d3 3c 15 fc f9 3c
       -0.0017897739 -0.056214493 0.025803866 0.03051571
000130 43 fc 8a 3d e9 c1 8a 3c 3d 94 47 3d 89 d2 54 3d
       0.06786396 0.016938167 0.048725355 0.051958594
000140 0d a7 c3 bb 6e f3 97 3d 4f ca 1a 3d 47 3f 6e 3b
       -0.0059708417 0.074194774 0.037790593 0.0036353634
000150 1a 02 d8 bc 6e 2d 16 bd 43 df f7 3c e4 a3 34 bc
       -0.02636819 -0.03666442 0.030257827 -0.011025403
000160 46 9b 0d 3d 3f c9 0a 3d c3 1b 60 3d 0c d2 b6 3d
       0.03457191 0.03388333 0.054713976 0.08926782
000170 1b 2c 7b 3d fa fb 79 bd 14 63 47 3c 82 b6 a1 3d
       0.06132136 -0.06103132 0.012169618 0.07896139
000180 ba bb 21 bd c3 6c ac 3c 77 69 68 bc 6d bc 0a 3c
       -0.03948567 0.021047955 -0.014185301 0.008467776
000190 c9 3d b3 bc 47 e9 62 3d 4a 71 76 3c 15 3c aa 3d
       -0.021880047 0.05539825 0.015041659 0.08312241
0001a0 d6 a6 1d 3d 99 d8 4a 3c 01 8b 00 bd 79 fa 20 bd
       0.038489185 0.0123807425 -0.031382564 -0.03930137
0001b0 36 19 9d 3c ea 1c 11 bc b9 78 01 bd dd 3e 00 bd
       0.01917706 -0.008856991 -0.03160927 -0.03130995
0001c0 ed 23 7b 3c ee ba aa 3c 1e 5d b1 bb ec d1 78 bd
       0.01532839 0.020841088 -0.0054127118 -0.060747072
0001d0 9c 80 c8 3c af 98 87 bc 96 6a 63 bc ae 16 7a 3d
       0.024475388 -0.016552297 -0.013880393 0.061056785
0001e0 97 07 85 bd d0 33 e6 3c 71 03 f2 bc 6f 4f 43 3d
       -0.06495588 0.028100878 -0.029542657 0.047683176
0001f0 8e 8e 0a bd 65 b2 56 3c 0b 70 be bc 5d 0f 46 3d
       -0.033827357 0.013104056 -0.023246786 0.048354495
000200 86 27 fd bc b8 e0 5d bd 01 95 00 3d b6 e7 3f 3d
       -0.030902635 -0.054169387 0.0313921 0.046851836
000210 a3 f0 46 3d 74 d3 07 bd 8e 5b 25 3d 7e 34 04 3d
       0.048569333 -0.03316064 0.040370516 0.032276623
000220 cb 25 bf bd 23 89 0c bd 6c 7c d8 3d 9f e9 27 3a
       -0.0933338 -0.03431047 0.105706066 0.00064053567
000230 a7 e5 3d 3d db 86 0c 3b 49 61 ca 3d 93 09 8d 3d
       0.04636159 0.0021442685 0.09881837 0.06886592
000240 0f 14 80 bc 1b f3 2a 3c 54 36 8f bd cb 64 ff bb
       -0.015634565 0.010433937 -0.06992784 -0.007793998
000250 fc b6 59 3c d5 e5 f9 bc 91 a9 0c bd 0e 77 23 bd
       0.013288256 -0.0305051 -0.0343414 -0.03990846
000260 19 a8 66 3d fa e8 b8 3b a7 8e ce 3c 6e a7 2e 3d
       0.056312654 0.0056430073 0.025214506 0.042640142
000270 d3 08 f3 bd 9c 2e a2 bd e1 58 d9 bc 28 df 0c bd
       -0.118669175 -0.07919046 -0.026531639 -0.034392506
000280 59 78 fc bc c6 ca a4 bd 96 1c ca bc f7 47 c4 bd
       -0.030819105 -0.080464885 -0.024671834 -0.09584039
000290 ec 22 58 3d 6f fe 98 3c 9f 14 4d bd a2 72 47 3d
       0.05276768 0.01867601 -0.050068494 0.048693307
0002a0 58 92 17 3d 17 ed 13 3d cf c8 49 ba 4c b0 97 bc
       0.0370048 0.03611478 -0.00076974643 -0.018516682
0002b0 8f 8b 90 3c 3c 8f b7 bd dc 34 b0 3c 92 39 23 3d
       0.017644672 -0.08962867 0.02150958 0.039849825
0002c0 23 af 3b 3d 9d 6b 60 bd 11 78 25 bd a5 d9 d6 3c
       0.04582132 -0.054790128 -0.040397707 0.026226828
0002d0 2b 26 8f bd a5 81 77 bd 40 2d 7f bd 41 c8 93 bd
       -0.06989702 -0.060426373 -0.062299013 -0.0721593
0002e0 f4 3c 92 bd b9 72 9f bd 3c 56 94 bc 26 b5 9f bd
       -0.07140532 -0.077855535 -0.018107526 -0.07798223
0002f0 d2 91 0b 3c f0 85 92 bc f0 11 70 bd cf 87 d5 3b
       0.008518653 -0.017886132 -0.058610857 0.006516434
000300 18 5f 05 bd 97 ca 0c 3d 8c 5b 8e 3c a8 ac 74 bd
       -0.03256139 0.034372892 0.017377637 -0.05973497
000310 80 45 64 bd e5 00 e5 bc 84 6c b3 bc 76 3a 2e 3c
       -0.055730343 -0.027954528 -0.02190233 0.010634055
000320 19 d4 8e bd 39 cf 5f bd 2a c8 1c 3d 45 5b 09 bc
       -0.06974048 -0.054640982 0.03827683 -0.008383577
000330 16 bb 13 bd 38 4e 4f bd b6 9e a8 3c 38 bf db 3c
       -0.03606709 -0.050611705 0.020583492 0.026824579
000340 e9 19 35 bc dd 0c 1a bd eb df 95 ba 78 56 ee 3c
       -0.011053541 -0.037609924 -0.0011434531 0.029093966
000350 f3 42 ff 3c 18 6b 91 3a 1e 10 04 bd bd 76 74 bd
       0.031159854 0.0011094538 -0.032241933 -0.05968355
000360 7a 2d e3 3c a8 dd 26 bd c2 fb 67 bd b4 37 0d 3c
       0.027731646 -0.04073873 -0.05663658 0.008619238
000370 17 8b a9 bd 3d 46 0b be 0d c8 5f bd cc ce ba bd
       -0.082784824 -0.13601013 -0.054634143 -0.091214746
000380 ee 72 93 bd f0 7e 08 3d 9d ba 03 bd 6e 7f 63 3d
       -0.071996555 0.033324182 -0.03216039 0.05554145
000390 62 2a 9f bc 98 81 21 3d 0d f1 a9 3c 21 d1 d4 bc
       -0.01942939 0.03943023 0.020744825 -0.025978627
0003a0 d5 07 47 3c ab 25 80 bd b2 aa f7 bc 0e e8 1f 3c
       0.012147863 -0.062571846 -0.030232761 0.009759916
0003b0 42 fa 7a 3d a6 f1 e9 bc 32 3e 05 bd 6e d5 4a bd
       0.06127382 -0.02855761 -0.032530017 -0.04951995
0003c0 96 3f b9 bc 04 dc f4 bc b3 db cd bc 4a 82 32 3c
       -0.022613328 -0.029890068 -0.025129175 0.010895321
0003d0 01 2d 90 3d a4 c0 48 3d 96 62 85 ba a8 d0 85 3c
       0.07039834 0.04901184 -0.0010176476 0.016334847
0003e0 9e cc 8d 3d 98 b5 6e 3c bc f9 3b 3d 0a 2d c4 3c
       0.06923793 0.0145696625 0.045892462 0.023947258
0003f0 ab 36 63 bd 0b d4 86 bd 70 c8 70 bd da fd a5 ba
       -0.055472057 -0.06583413 -0.058784902 -0.0012664155

conv2.bias f4 [32]
000000 00 a6 e3 3c b5 99 76 bc 65 6e 98 bc b7 f3 8c 3b
       0.027789116 -0.015051295 -0.018607328 0.004301514
000010 85 44 84 3d 6a 9d d0 bc 98 47 c9 3c e7 02 ac bb
       0.064583816 -0.025465686 0.024570271 -0.0052493694
000020 8b 6c 65 bb 1f 2c 87 3d 3a c2 e7 3c f3 1d 10 ba
       -0.0035007324 0.06600212 0.028290857 -0.0005497627
000030 3e 58 38 3d 28 d3 4d bb ff a4 11 3d af de 0a 3d
       0.04500603 -0.0031406377 0.035557743 0.033903774
000040 7f ed 85 bc 9e f2 14 3d 84 9d 3c 3d 13 f6 14 bd
       -0.016348599 0.03636419 0.046048656 -0.036367487
000050 fe 0f 27 bd 1c cb 6d 3b 82 05 ca bc 99 7f 08 bc
       -0.040786736 0.0036284393 -0.02466083 -0.008331203
000060 f7 83 ab 3b 4b 17 0f 3c b3 ab 25 bd 5c 8c 54 bd
       0.0052342373 0.008733581 -0.04044695 -0.05189167
000070 69 b3 0e 3c 6a aa cb 3c d1 bf 76 3c d4 13 1c 3c
       0.008709767 0.024861533 0.015060381 0.009526212

conv3.weight f4 [32, 32, 3, 3]
000000 c5 e9 e7 3c 7a 6b bb bd 71 c4 ae bd e5 9d 07 3c
       0.028309712 -0.09151359 -0.08533562 0.008277391
000010 e4 b6 5c bd f8 e0 9e bd ee 22 49 bd 36 b9 a1 3c
       -0.053885356 -0.07757753 -0.049105577 0.019741636
000020 4d ea b5 bc 6b b8 1e 3d e0 f2 08 bd 5a ff 05 be
       -0.02220645 0.038750093 -0.03343475 -0.1308569
000030 f0 53 e8 3c b4 92 e2 bd 53 b1 ff bd 7e 8d dd bc
       0.028360337 -0.11063138 -0.12484994 -0.027045008
000040 f5 ab 74 3d b2 6e 4a 3d 5e e3 02 3e dd 7d 08 3e
       0.059734304 0.049421974 0.12782046 0.13329263
000050 dd dd 03 3e 97 67 27 3d c3 fd 53 3d 0d 8e 8f 3d
       0.12877603 0.040870275 0.051755678 0.07009516
000060 56 dd 80 bc f5 c1 86 bd b3 99 34 3d 1d 12 7e 3e
       -0.015730541 -0.06579963 0.04409189 0.24811597
000070 8c ea 22 3e 2b c3 85 bd 73 64 3b bd 4e bf ac bc
       0.15909785 -0.06531366 -0.045750093 -0.021087315
000080 17 0b 4d bd 15 48 a4 bd b9 39 50 3d 75 e7 00 3e
       -0.050059404 -0.08021561 0.0508363 0.12588294
000090 41 12 09 3e f9 ef a1 3d 55 b0 ce 3c cb b1 b5 3d
       0.1338587 0.07907099 0.025230566 0.08871802
0000a0 94 f2 a5 3c b3 6c cc 3c ec 49 e1 3d 59 0d 1f 3d
       0.020257272 0.024954176 0.110004276 0.03883109
0000b0 47 54 ce 3d 68 22 04 3d 40 17 46 bd 35 11 0d be
       0.100746684 0.032259375 -0.048362017 -0.13776095
0000c0 cb c3 76 3d 90 0a 38 b9 da ec 29 be 3a 82 34 bb
       0.060245316 -0.00017551542 -0.16594258 -0.0027543441
0000d0 21 db 9f 3d 77 63 3c bd 80 8a a3 3d 00 e2 3b bc
       0.078054674 -0.045993295 0.07985401 -0.011467457
0000e0 d2 9b 06 bd 95 61 c6 3d 27 50 dd 3c 0f 73 fc 3c
       -0.032863446 0.09686581 0.027015759 0.030816583
0000f0 cd d6 fc 3b 85 31 77 bd 65 1b f8 bd 79 7b d2 3d
       0.007716036 -0.06034996 -0.121146 0.10277457
000100 df f5 f8 3c 03 36 ef 3c ee b4 7a 3c 1b 67 88 3c
       0.030390678 0.02920056 0.015301926 0.016650727
000110 16 c8 e0 bd 4d 57 10 bd 17 e7 dd bd 8f 66 dc bd
       -0.10975663 -0.035239507 -0.108350925 -0.10761749
000120 b3 c4 87 3b 77 34 7a 3d 23 ab be bd 4c ba 53 bd
       0.0041433214 0.06108519 -0.093099855 -0.05169134
000130 f1 98 55 bd 48 d3 06 bd e8 c4 c4 bd d4 6a 2f be
       -0.05214781 -0.032916337 -0.096078694 -0.17130595
000140 cb 7c e7 bb e3 7f 26 3e 49 38 1b 3e f8 fe 95 3d
       -0.007064437 0.16259722 0.1515819 0.07324022
000150 51 b2 07 3d 1e 28 be 3d d5 23 5e 3d 62 02 d7 3b
       0.03312904 0.092849955 0.05423339 0.0065615634
000160 71 3c 40 3d 66 23 98 3d ec 33 bf bb d2 96 2a 3b
       0.04693264 0.07428627 -0.005835047 0.0026029837
000170 47 84 5b bd 6f 93 8b bd a3 82 d9 bc a1 fc 0d bd
       -0.053592946 -0.0681523 -0.02655155 -0.034664754
000180 74 6b e3 bc 0c d5 59 bd a1 b2 55 3c 7f 9c 1a 3d
       -0.027761199 -0.053181693 0.013043077 0.037746903
000190 26 e2 69 bd 61 27 06 be 63 3a 01 3d 8d 16 d5 bb
       -0.057100438 -0.1310096 0.031549823 -0.0065029324
0001a0 a3 5c 7a bd 0a 30 ac 3d e6 43 46 3b f3 3b e1 3c
       -0.0611235 0.084076 0.0030252873 0.027494406
0001b0 b0 af 2b 3e 2c 36 ef 3d bc 55 c5 3d a2 94 ee 3c
       0.16766238 0.11680254 0.09635493 0.029123608
0001c0 a3 0c e1 3c 7e ad 74 3d 0f f4 fe 3d 08 63 8b 3d
       0.027471846 0.059735768 0.12448894 0.06805998
0001d0 17 df d6 3d 99 54 44 3d 95 c3 2b bd c0 b9 eb bd
       0.1049177 0.04793224 -0.04193457 -0.115100384
0001e0 4f ee 70 bd 14 d6 72 bd 95 cb 64 bd bf a7 57 3d
       -0.05882102 -0.059286192 -0.055858213 0.05265021
0001f0 75 6e 1b bc 15 2d 48 bc bb 55 87 3d 58 2b 09 3d
       -0.009486784 -0.01221778 0.06608149 0.0334886
000200 83 76 7e 3d 54 e6 de bc 8d 3a 5e bd c1 c5 ef bd
       0.06212474 -0.027209438 -0.054255057 -0.117076404
000210 c7 80 c2 bd f6 59 22 bd 1e 3e 89 3c d1 b2 2f bc
       -0.094972186 -0.039636575 0.016753253 -0.0107237855
000220 2b 8b 00 bc a2 d4 2c be 31 2c 81 bd df f0 e0 bd
       -0.00784568 -0.16877988 -0.06307257 -0.109834425
000230 b5 b4 df bd 6d cf 7c 3c 07 61 99 3d ab 2e d0 bc
       -0.10923139 0.015430314 0.074892096 -0.025412878
000240 e1 29 33 3d 73 82 41 3d 31 96 29 3d 9f 6a d6 bc
       0.04374111 0.047243547 0.041403 -0.026173888
000250 67 af 13 bc ba bd d2 3c 94 28 60 3c b0 cf 98 3c
       -0.009013987 0.025725234 0.01368155 0.01865372
000260 88 68 6b 3d 80 ad f5 bb 22 9f e5 3c bf b3 3c 3c
       0.057472736 -0.0074974895 0.028029982 0.011517464
000270 d9 aa 8b bd 79 71 13 be bd 77 84 39 d1 f6 c2 bd
       -0.06819696 -0.14398755 0.00025266214 -0.09519733
000280 3e 92 36 bd d0 72 8e 3c 79 c6 0f 3d 72 56 58 bd
       -0.04457306 0.017388731 0.035101388 -0.052816816
000290 f6 28 e8 bd 78 44 41 3b 68 54 a0 bd 20 ed f8 bd
       -0.11335938 0.0029490273 -0.07828599 -0.12154603
0002a0 ae c0 29 bd 4f 8b 07 bd 51 b5 b5 bc 59 25 af 3d
       -0.04144352 -0.03309184 -0.022181185 0.085520454
0002b0 de 8b 25 bd 46 b6 08 be c6 dc 34 3e 84 17 e4 3d
       -0.04041659 -0.13350782 0.17662343 0.11137298
0002c0 65 07 a2 bd 03 e4 90 3d 13 11 6b 3d 4e 25 27 be
       -0.07911567 0.0707474 0.05738933 -0.16322824
0002d0 6e e4 b8 3c ae c0 47 3d 8f 55 9c 3d 1f 88 a4 3d
       0.022569861 0.048767738 0.076335065 0.080337755
0002e0 bd 83 58 3d 9f 59 00 bc 8b 35 d3 3b 0e f6 32 3d
       0.05286001 -0.007833867 0.006445592 0.043691687
0002f0 77 63 01 3d 47 0f 81 3d 1f 85 55 3d 47 2b fd bc
       0.031588998 0.06301742 0.052128907 -0.030904425
000300 06 46 ca 3d 7c d9 85 3d b3 3c c4 3d 0f ec 36 3d
       0.09876637 0.065356225 0.0958189 0.044658717
000310 a2 03 44 bb 72 17 0d 3d 34 6d eb 3c 0d fe b0 bd
       -0.0029909392 0.034446187 0.028738596 -0.08642206
000320 88 3a d8 bd 85 d2 d8 3c 04 a0 91 bd 94 18 9b bd
       -0.10558039 0.026467571 -0.07110599 -0.07573047
000330 56 56 d3 bd cc 61 f5 3b 11 e5 a1 bc e2 bd 5d bb
       -0.10319202 0.007488465 -0.019762548 -0.0033835103
000340 08 c1 df bd 16 3b 04 be 62 04 01 bc 70 ca 4c bd
       -0.1092549 -0.12913164 -0.00787458 -0.049997747
000350 ba 98 8a bd 4f 84 63 3c 51 4b 57 bc 20 25 35 3d
       -0.067674115 0.013886525 -0.013140515 0.04422486
000360 09 d7 9b bc ab 58 e8 bc 64 65 27 3d 8d dc 0e 3d
       -0.019023435 -0.028362593 0.040868178 0.034878302
000370 ec 19 c0 bc 69 36 a4 bd 28 36 27 3d c3 e4 0b bd
       -0.02344986 -0.080181904 0.04082313 -0.03415371
000380 ac 7c 50 bd 0c b7 de 3c 09 cc cf bb bb 05 83 bc
       -0.050900146 0.027186893 -0.0063414616 -0.015993943
000390 b2 d5 b1 3c ff 49 c9 3c d7 45 d3 3c 6c 98 ae bc
       0.021708343 0.024571417 0.025790138 -0.021312915
0003a0 a6 85 0c bd 1b 6c 40 bd f3 fd 0f 3d 77 1d 0f bd
       -0.034307145 -0.046978097 0.035154294 -0.03494021
0003b0 3e 65 e4 bd 7b 45 c7 3c 11 c5 0b bd 5b a1 cb bc
       -0.11152123 0.024325123 -0.034123484 -0.024857214
0003c0 2e f1 d3 bc 8f 04 46 3d 11 c3 1f 3e f4 8b 98 bd
       -0.02587184 0.04834419 0.15601756 -0.07448569
0003d0 38 da 1a 3c d1 50 a2 bd e9 b8 d7 bd 34 aa 0c bd
       0.0094514415 -0.07925571 -0.10533316 -0.034342006
0003e0 09 d2 ff 3d 02 57 c3 3d 6d d8 eb 3b d2 30 4c 3e
       0.12491233 0.0953808 0.007197431 0.19940498
0003f0 21 89 98 3d 4b ce 2b bb b3 df 83 bd d0 35 ba bd
       0.0744803 -0.002621549 -0.064391516 -0.09092295

conv3.bias f4 [32]
000000 32 00 ce 3d ac 59 0b 3d d3 d2 bf 3b 6b 9f 04 3d
       0.10058631 0.034021065 0.0058539896 0.032378595
000010 84 63 39 bd 67 1d 13 bc 24 f9 87 bb 57 a9 82 3c
       -0.04526092 -0.008979178 -0.004149573 0.015949888
000020 fc 7d e2 3c bb 0d 80 bd c5 dc ff bc 4c cd 9f bb
       0.027647965 -0.06252619 -0.0312332 -0.004876768
000030 1a 32 85 3b aa 40 d1 3b 11 16 1b bd 4f b0 57 bd
       0.0040648105 0.0063858824 -0.03786284 -0.052658375
000040 44 5f 2d bc 1e 99 c3 bc 35 ae 29 3d 64 01 6d 3d
       -0.010581795 -0.023876723 0.041425902 0.057862654
000050 a9 c4 53 bc 33 5b 99 3b f8 79 14 bd d2 4a 36 bd
       -0.012925305 0.0046800612 -0.03624913 -0.044504948
000060 64 d2 22 3d 1a dc 7a 3d 9e 9e 30 3d 6e 57 d6 bc
       0.039751425 0.06124506 0.04312002 -0.026164737
000070 5d 22 17 3c 18 82 62 3d e3 5a 75 bd 29 29 39 bd
       0.009224501 0.05529985 -0.05990113 -0.04520527

conv4.offset_conv.weight f4 [18, 32, 3, 3]
000000 d1 1e 03 be 74 80 16 bd 65 52 a7 bd eb 24 e5 bc
       -0.12804724 -0.036743596 -0.081700124 -0.027971705
000010 c5 80 11 bd b1 dc d3 bc 13 46 b4 3c be 67 78 bd
       -0.035523195 -0.02586207 0.02200607 -0.06064581
000020 ac 08 4c 3c 6d 54 a7 3c b1 0f ed bc a4 78 5b 3c
       0.012453239 0.020426 -0.028938146 0.013395462
000030 48 65 1f bd 89 80 a7 bc 83 21 7f bc 02 45 60 bd
       -0.03891495 -0.020447033 -0.015571955 -0.05475331
000040 31 97 0d 3c 41 1e 71 3d 13 05 b4 bd 82 3e ab bd
       0.008642004 0.058866743 -0.0879003 -0.08361532
000050 a0 8f a7 3c f1 e3 7c 3b 19 9b 25 3d 63 d2 02 3d
       0.020454228 0.0038588012 0.040431116 0.03193892
000060 c7 f5 01 3e fc 60 ea 3c 59 22 3f bc f6 fc 73 3c
       0.12691413 0.028610699 -0.011665904 0.014891854
000070 b9 c8 29 3b 78 8f 50 bc 3e 07 f3 bc 0c f8 b5 3b
       0.0025906994 -0.012729518 -0.02966654 0.005553251
000080 26 59 c1 3c 40 aa 6d bd cc be 2c bc a8 10 cf 3c
       0.02360208 -0.05802369 -0.010543536 0.025276497
000090 c4 1c 5c 3c cd 72 74 3c 54 b8 e2 3a 71 0b 65 3c
       0.013434593 0.014919949 0.0017297366 0.013979779
0000a0 f2 80 c9 bb e0 5a 85 bc 36 71 d3 bc 75 80 e4 bc
       -0.0061494047 -0.016278684 -0.02581082 -0.027893284
0000b0 3a 2e c2 bc f4 56 ae 3b 6a c8 93 3b a6 32 10 bd
       -0.023703683 0.005320424 0.004509975 -0.035204552
0000c0 0a fb df bb fe 90 64 bb 08 71 c7 3c 2b 92 af 3c
       -0.006835346 -0.003487646 0.02434589 0.021432003
0000d0 8e 29 34 3d b2 e7 3e 3d a1 5e c4 b9 0d dd 2d 3c
       0.043984942 0.04660768 -0.00037454537 0.010611785
0000e0 3e 60 4a bd 5c 39 50 3d 90 14 2f 3d 08 e0 ba 3c
       -0.04940819 0.050835952 0.04274422 0.022811905
0000f0 3c 09 e1 3c c1 49 37 bd ae 41 89 bd 18 33 a3 bb
       0.027470224 -0.04474807 -0.067019805 -0.004980456
000100 69 bb b0 3b b8 69 26 3d 55 8b 29 bd 93 f2 86 bc
       0.005393435 0.040628165 -0.041392643 -0.01647309
000110 f3 a1 a0 bb d2 b1 88 3b 7e ce 81 3d e0 18 9f 3c
       -0.0049021184 0.0041715885 0.063382134 0.019421041
000120 9d 98 72 bc 80 a1 47 3d 31 b6 e4 3c d0 15 fb 3a
       -0.014806894 0.048738003 0.027918907 0.0019156281
000130 1a df cb 3c a5 69 bc bc 75 46 b6 bb 9b ce 89 bc
       0.024886657 -0.022999594 -0.0055625984 -0.01682215
000140 d8 c4 1c bd c1 31 d9 bc ff 9d 8e bd 4f 92 25 bd
       -0.038273662 -0.026512982 -0.06963729 -0.040422734
000150 92 c4 69 3d 8b 2a ec 3b 66 d9 bd bc 71 da 8c 3d
       0.05707223 0.00720722 -0.023174953 0.06877602
000160 7c db 7f 3d 33 fa 80 3d 5d 96 32 3d 58 27 f8 3c
       0.062465176 0.06297722 0.04360043 0.030292198
000170 34 9d 08 bb 16 7a f4 3c 63 ab dd 3c bc a2 09 3c
       -0.0020845653 0.029843371 0.027059263 0.008400615
000180 74 ed 94 bc cc c1 a3 bc 9e 21 d8 bc ae 9c 8f 3c
       -0.018179633 -0.01998987 -0.026383217 0.017530765
000190 10 e1 d5 3b f8 48 d3 bc c0 53 04 3c 80 50 8d 3c
       0.0065270737 -0.02579163 0.008076608 0.0172503
0001a0 7f ea 3f bd c3 8c 1c bd 9c 94 55 bd 07 1b 5a bd
       -0.046854492 -0.03822018 -0.052143678 -0.05324843
0001b0 52 40 99 bd c9 62 ee bc 81 a0 56 3d 57 a8 0a bd
       -0.07482971 -0.029099839 0.052399162 -0.033851948
0001c0 46 38 f8 3c 73 65 68 3d 2f 6a da 3d d4 5c 41 3d
       0.03030027 0.056737375 0.10664784 0.04720767
0001d0 84 50 27 3c 2c 11 8e bc e9 0a e4 bb 94 07 7d 3b
       0.0102120675 -0.017342173 -0.0069593084 0.0038609253
0001e0 15 ae c7 bc 29 fc 54 bd de d5 81 bc 80 a9 6c 3d
       -0.024375001 -0.05199829 -0.01584905 0.057778835
0001f0 92 46 4e 3d 08 79 96 3d 6f c5 17 3d e9 bd 0c 3d
       0.05036027 0.07347304 0.03705352 0.0343608
000200 d6 a3 fb 3b c5 b0 0b bd 9e db 9f 3c d1 17 27 bd
       0.007679443 -0.034104127 0.019513901 -0.040794197
000210 6c 41 9f bd 38 b3 42 bd 40 f9 55 bd 96 cd 95 bd
       -0.0777615 -0.047534198 -0.052239656 -0.07314603
000220 44 6b 27 bc eb a2 47 3d 7b a6 00 bd 7c 20 a0 3b
       -0.010218445 0.048739355 -0.03140877 0.004886685
000230 7f 87 8e 3c a1 f9 84 3b e6 44 1d bd bc 48 e7 bb
       0.017398594 0.0040580784 -0.038395785 -0.007058231
000240 51 0c 1e bd d2 a1 33 bd da 48 a3 bc d9 80 7b bc
       -0.038585965 -0.043855496 -0.0199322 -0.015350544
000250 24 b0 df bc da 4e 12 bc 05 98 32 3c 95 5f 0c 3b
       -0.02730567 -0.0089299325 0.010900502 0.0021419276
000260 aa f7 9e bb 9b 75 e5 3c ef 60 a1 bc d2 28 e8 3c
       -0.004851301 0.02801018 -0.019699542 0.028339777
000270 90 c4 83 bd e0 33 22 bd 75 af ea bc 28 0f 98 bc
       -0.06433976 -0.039600253 -0.028648118 -0.018561915
000280 7b a4 bf bc 5d 7f 17 3d 3d e9 63 3d 26 20 4f 3d
       -0.02339386 0.036986697 0.055642355 0.05056777
000290 4f 21 87 3c 30 91 dc 3d 43 a1 a3 3d f6 5f 69 3c
       0.016495375 0.1076988 0.079897426 0.01424407
0002a0 0d f7 5d 3d 84 72 a4 3c 24 da 3a bd 79 62 3b bb
       0.054190684 0.020074137 -0.04561819 -0.002859263
0002b0 41 a9 f3 bc d9 71 73 bd 4a b8 8e 3c 58 7e ac 3c
       -0.029743792 -0.059434745 0.01742186 0.02105634
0002c0 14 f7 87 ba 8c 6b 28 3c d9 5b 91 3c a1 7d 28 3c
       -0.0010373318 0.010279547 0.017743992 0.0102838585
0002d0 d2 4b b7 3d 02 cf ab 3c a0 f5 0f bd 29 21 ad bd
       0.089500085 0.020972732 -0.035146356 -0.084535904
0002e0 ca 29 9e bc 5d e2 aa 3b 92 4f b0 bc eb e1 24 bd
       -0.019307036 0.005214973 -0.021522317 -0.040254515
0002f0 9f d2 54 bd 12 a8 94 3b be 7f 62 3c 0a 11 d0 3c
       -0.051958676 0.004536637 0.013824401 0.02539875
000300 82 b5 c0 3b 71 7d 5c b9 41 49 52 3c 47 b4 59 39
       0.0058810124 -0.00021027566 0.012834848 0.00020761891
000310 f5 be 13 bc ee 94 8f bc df 63 2a bc 05 c5 7e 3c
       -0.009017696 -0.01752707 -0.010399788 0.015549903
000320 95 98 cc bb d8 e1 57 3d 72 85 2f bc a6 2b 48 bd
       -0.006243775 0.052705616 -0.010712968 -0.04886975
000330 f2 82 96 bd 84 f2 45 bd d4 ea 1e 3b 33 9d 67 bd
       -0.073491946 -0.048326984 0.0024248855 -0.0565464
000340 a6 ee 49 3c 0f 6a 69 3a d5 64 a1 3c a5 6f 8e 3c
       0.012324965 0.00089040486 0.0197014 0.01738722
000350 04 98 2e bd 06 6a 4c bc 9c 95 33 bd 85 f4 75 bd
       -0.042625442 -0.01247645 -0.04384385 -0.060047645
000360 7f aa 0f bc 0f 29 ba 3c d3 d7 b3 3d 7b d2 b9 3d
       -0.008768677 0.022724656 0.087813996 0.09073349
000370 f6 54 85 3d fb 37 82 3c 16 e3 b6 bc a3 74 72 bc
       0.06510346 0.015895834 -0.02232508 -0.014798316
000380 ad b1 4b bd d2 02 42 3c 56 e7 15 bc 28 e7 bd 3b
       -0.04972999 0.011841493 -0.009149393 0.0057953782
000390 d0 7d c5 bb 72 7f 52 bc 83 55 85 3c 0e 92 8a bc
       -0.006026961 -0.012847768 0.016276127 -0.016915347
0003a0 3a 9e 09 bc e2 d2 53 3b 1a c9 8d bd 91 63 fc bc
       -0.008399541 0.003232174 -0.06923123 -0.030809196
0003b0 73 df d9 3c d6 a4 0c bc 5a 44 c1 3b 0c 4e b6 3b
       0.026595807 -0.008584222 0.0058980407 0.005563503
0003c0 94 51 3a 3c cd 56 17 3d e6 5b d4 3c 34 93 04 3d
       0.011371989 0.036948014 0.025922727 0.032366946
0003d0 73 1c 18 3d 7b 0a e4 3c 22 02 c8 39 35 2d 3e 3d
       0.037136506 0.027837029 0.00038148562 0.04642983
0003e0 de 9a 06 bc 5d 71 81 bc c7 86 f0 3b b8 21 28 bd
       -0.008215634 -0.015801126 0.0073402855 -0.04104778
0003f0 4c b4 8d bc 6d f0 23 3c 2a e5 9c b9 63 4d e1 3c
       -0.017297886 0.010006052 -0.0002992538 0.027502721

conv4.offset_conv.bias f4 [18]
000000 35 b3 10 3c d8 29 b3 bc ba 2a 5c 3c 49 b7 39 3c
       0.008831789 -0.021870539 0.013437921 0.0113352025
000010 20 8e 08 3c 19 f7 a1 ba 0b 85 85 bb 8b 8b 3c bb
       0.0083346665 -0.0012356966 -0.004074698 -0.0028769698
000020 52 55 b7 3c c7 0a 20 3c f7 d5 32 3d 1a b0 bc 3c
       0.022379551 0.0097681945 0.043661084 0.02303319
000030 9a 71 1b 3c 25 69 d6 3c 75 e9 4c 3c b6 8a 9f 3c
       0.009487534 0.026173184 0.012506832 0.019475322
000040 a7 cb 39 3c 20 53 27 ba
       0.011340058 -0.0006382931

conv4.modulator_conv.weight f4 [9, 32, 3, 3]
000000 c3 5a d3 bb 8a cf 9c bc a5 74 64 bc ab ef 5a 3d
       -0.0064500286 -0.019141931 -0.013943826 0.05345122
000010 43 4c 88 3b 4f 82 ee 3c 41 e8 4c 3d 9d 00 b1 3c
       0.0041594817 0.02911487 0.050026182 0.021606738
000020 84 ed 48 3d 01 84 67 bd 56 9a 46 bd 1a e6 c0 bb
       0.049054638 -0.056522373 -0.04848703 -0.0058868052
000030 1a 33 3f bd d6 26 8f 3a 97 56 a2 3c 3f 0b a4 bd
       -0.046679594 0.0010921608 0.01981668 -0.080099575
000040 7f 31 9b bc 51 8f 91 bb 9b d2 33 3e 94 74 1b 3e
       -0.0189445 -0.0044421335 0.17560808 0.1518119
000050 07 19 1a 3e 6e 8c 88 3d 69 37 9b bb d0 d4 bb bc
       0.1504861 0.0666741 -0.00473683 -0.022928625
000060 f5 dc c8 bc 98 f7 9d bc 60 1f 90 3c d0 2f 45 3d
       -0.024519423 -0.019283101 0.017593086 0.0481413
000070 11 aa 7a 3d 1d 8b 0a 3d c6 e4 54 3d 24 0a 8d 3d
       0.061197344 0.033824075 0.051975988 0.068867
000080 01 78 6f 3d 1c f6 81 3c 10 72 81 3c 36 06 0d ba
       0.058464054 0.015864424 0.01580146 -0.00053796486
000090 e9 bd ca 3b 63 ed 3b bb 09 2c c2 3b 94 b9 f7 bb
       0.00618719 -0.002867543 0.0059256596 -0.0075599644
0000a0 ce 34 aa 3a db 0c e3 3c 3f 2f 49 bc 47 26 45 3b
       0.0012985708 0.02771609 -0.012279331 0.003008263
0000b0 09 f7 d0 3c ee d0 7d 3d 01 b8 1c 3e fb 6d 1a 3e
       0.02550842 0.06196683 0.15304567 0.15081017
0000c0 97 05 d8 3d 63 ca 14 3e 9d 45 e8 3d 26 b0 af 3d
       0.10547941 0.1453033 0.11341403 0.085785195
0000d0 22 be 9c 3d 51 4b 4f 3d 10 bf 53 3c 4e 14 41 3c
       0.076534525 0.050608937 0.012923971 0.011784626
0000e0 a0 66 d9 3c 4a d7 09 bd 49 68 9d bb 0f d0 82 3c
       0.026538193 -0.03365258 -0.0048036915 0.01596835
0000f0 42 e5 3c bd 32 5d 3e bd b0 8f 8e 3b f9 51 d3 3c
       -0.046117075 -0.046475597 0.004350625 0.025795924
000100 c9 0e 35 3d e4 38 10 3d d0 1f ae 3d fa a8 a0 3d
       0.044203553 0.035210505 0.085021615 0.0784473
000110 c7 cc 12 3d 3e 66 1c 3d 7e 72 d8 3b da 21 11 bd
       0.035839822 0.038183443 0.0066054454 -0.035432674
000120 e7 18 0e bc 62 72 2e bc 72 be 61 bc a3 87 f1 bc
       -0.008672929 -0.010647388 -0.013778316 -0.029483622
000130 70 c1 d4 bc cd 72 b9 bb 7f 54 b5 bd 4e b1 3e bd
       -0.025971144 -0.0056594373 -0.08854007 -0.04655581
000140 3a 4c cd 3b ef 23 13 bd 31 46 39 bd 4d 25 77 bc
       0.0062651904 -0.03592294 -0.045232955 -0.015084577
000150 2c f4 b6 bc 2f 10 ba 3b 21 6f 0f 3c b5 e2 0e bd
       -0.022333227 0.0056781988 0.008754523 -0.034884173
000160 a9 60 5e bc 4b 45 0e bd e6 4a e2 3c a9 55 a9 3c
       -0.01357285 -0.03473405 0.027623605 0.020670729
000170 f7 82 ed 3c f5 5f 84 3c ad aa b8 3c 47 66 f7 3c
       0.028993113 0.016159037 0.022542322 0.030200137
000180 d5 d8 27 bd 48 2a 0e bd b3 b9 cf ba 17 de 66 3c
       -0.04097827 -0.03470829 -0.0015848189 0.014091036
000190 1f 7c a0 3c be c9 33 3d 3d 86 c7 bc 3b 10 02 bc
       0.019590436 0.04389357 -0.024356002 -0.00793844
0001a0 50 e4 0f 3d bc e3 87 bd ed 7e 48 bd 3f 29 ab 3a
       0.035129845 -0.06635234 -0.04894917 0.0013058557
0001b0 44 7b 08 3d 5d 82 1d 3d 2e f9 0b 3d d3 bb 87 3c
       0.03332068 0.038454402 0.034173183 0.016569054
0001c0 87 d1 a4 bc 5d 37 03 bd af c0 67 bd 0f 8e b1 bc
       -0.020119442 -0.03203522 -0.05658024 -0.021674184
0001d0 ce 15 1e 3c 38 3b 6c 3e 6d 6c 3e 3e 33 54 20 3e
       0.009648753 0.23069465 0.18596049 0.1565712
0001e0 5a 98 cd 3b c6 fd 5b 39 05 30 66 3c 26 bf 00 3d
       0.0062742652 0.00020980006 0.014049535 0.031432293
0001f0 c4 94 b1 3d 2c aa 01 3e aa ab 20 bc 4b 46 d5 ba
       0.08670953 0.12662572 -0.009806553 -0.0016271559
000200 5f 6b fb 3c 2c 7a 55 bd 38 51 fd bc 43 c5 82 3c
       0.030690847 -0.052118465 -0.030922517 0.015963202
000210 08 be dc bd 5c 08 a0 bd 62 b8 0b bc 19 c8 d1 3c
       -0.10778433 -0.078140944 -0.008527847 0.02560811
000220 4a e9 4c bb 5b b0 72 bd 3c a8 1f 3d a9 8c 03 bd
       -0.003126698 -0.059250217 0.0389788 -0.032116566
000230 e2 55 8e bd c1 c6 63 bd db 99 1c bd 8c 79 18 bd
       -0.069499746 -0.05560947 -0.038232666 -0.03722529
000240 7f a2 13 3d 93 37 ce 3c ba fe 08 3d fa f8 34 3d
       0.03604364 0.025172984 0.03344605 0.044182755
000250 39 05 1c 3d 18 fa 21 3d 36 5d 7d 3c 20 9c ca 3c
       0.03809092 0.03954515 0.015464118 0.02473265
000260 ae 36 1d 3d ae 68 7d bd bf 4c 66 bc 5b c7 cb b8
       0.038382225 -0.06186741 -0.014056384 -9.716927e-05
000270 86 b9 d8 3d dc 32 67 3e 79 b6 6b 3e f8 c7 e8 3d
       0.10582261 0.22577995 0.23018827 0.11366266
000280 ab 13 0a 3e 84 f5 bd 3d 50 8c 17 3d ef 21 d7 3c
       0.13484065 0.09275344 0.036999047 0.026261298
000290 3d 66 8c 3d ca 80 db bc 46 5e a9 ba b7 d5 1f 3d
       0.06855438 -0.02679481 -0.0012921772 0.039022174
0002a0 b7 14 95 bc 03 56 6b bd b2 8a 00 bd 50 b6 9f 3c
       -0.018198354 -0.057455074 -0.03138227 0.019496113
0002b0 e5 44 56 3c f8 e6 ce 3b 28 62 4f 3d fe c1 4a 3d
       0.013077949 0.0063141547 0.05063072 0.04950141
0002c0 31 d6 0b 3d 94 d5 b8 3c fc 7c c4 3c 69 76 23 3c
       0.034139816 0.02256278 0.023985378 0.009976962
0002d0 f5 3a 2c bd 32 83 4f bd f4 f3 ed 3b 12 41 b7 bd
       -0.042048413 -0.050662227 0.0072617475 -0.08947958
0002e0 9b a1 61 bd 33 30 26 3a 08 b7 80 bd d4 19 b2 bc
       -0.05508576 0.00063395797 -0.062849104 -0.021740831
0002f0 69 0d 91 3c 4a 4e 64 3d 4d 5b e3 3c 1e 02 79 3c
       0.01770659 0.055738725 0.027753497 0.015198259
000300 14 73 4a 3d 6d 64 bb 3c c1 99 06 3c f7 fa 2a 3c
       0.049426153 0.022875035 0.008215369 0.010435811
000310 4b aa 7b bc 7b a7 3b bd 92 12 f2 3c b7 f3 12 bd
       -0.015360425 -0.04581402 0.02954987 -0.035876956
000320 68 03 87 bd 90 06 44 bd 0a 9c 8c bd 6a 75 79 bd
       -0.065924466 -0.04785782 -0.068656996 -0.06090299
000330 73 42 6c bb 6a 21 0b 3d 09 a3 95 3d 1b 70 ad bb
       -0.003605035 0.033967413 0.07306487 -0.005292905
000340 8e 76 d0 bc 04 78 54 bd 03 fc 36 bd 58 f3 89 bd
       -0.025447156 -0.05187227 -0.04467393 -0.06735867
000350 ed 3f 8d bd d5 1f dd bc 31 1b a1 bc 66 fc 98 3c
       -0.068969585 -0.026992718 -0.019666286 0.01867504
000360 81 c4 79 3d d3 91 04 3d 75 72 3b bc ab dd 76 3d
       0.060978416 0.03236563 -0.011440863 0.060269993
000370 07 9d 94 3c c0 76 a8 bd ae 89 4d bd 59 6e 5e bd
       0.018141283 -0.08225775 -0.05018013 -0.054304454
000380 a0 1b d7 bd 14 06 8e 3d 61 0a 4d 3d 14 70 5f 3d
       -0.10503316 0.06934753 0.050058726 0.054550245
000390 b9 3c 92 3d 5d 84 80 3d 4a 8d 80 3d 94 bb 98 ba
       0.07140488 0.06275246 0.06276949 -0.0011652582
0003a0 07 c8 32 bc 71 6c 62 bc 40 85 27 bc e8 2d 48 bc
       -0.010911948 -0.0138198 -0.01022464 -0.012217976
0003b0 a3 91 ca bc 87 92 12 3d 2f 2b 8c 3c 85 da 86 bc
       -0.024727648 0.03578427 0.017110435 -0.01646162
0003c0 af 59 c8 3c ae 47 bd 3c 85 ac 23 3c 1a a9 7b 3a
       0.024456827 0.023105469 0.009989862 0.0009600088
0003d0 80 f1 a9 3b 6d 1f a0 3c ab ab d1 bc 1c f4 02 bc
       0.0051862597 0.019546235 -0.025594553 -0.0079927705
0003e0 d3 d0 87 3c a6 47 91 bc 9b 33 3f bc f0 d1 8a bc
       0.016579067 -0.01773436 -0.011670019 -0.01694581
0003f0 bf 90 69 3b 55 0c 5a bb 58 9e 7e 3c e8 43 1e bc
       0.0035639254 -0.003327151 0.015540682 -0.009659745

conv4.modulator_conv.bias f4 [9]
000000 93 bf 25 3d cd 24 36 3d a8 09 a5 3c 7e 21 96 3c
       0.040465903 0.04446869 0.020146206 0.018326517
000010 41 4d 04 3d 0a c9 98 3c 97 34 18 3c 9c 04 07 3d
       0.032300238 0.01865055 0.009289882 0.03296338
000020 3d 0c d6 3c
       0.026128883

conv4.regular_conv.weight f4 [32, 32, 3, 3]
000000 4d 01 5c bd 6f 20 fc 3c bd f9 52 3d a1 0b 5f 3d
       -0.053712178 0.030777184 0.0515077 0.05445445
000010 41 48 34 3d 73 e7 01 be 40 44 73 bb 22 c2 8c bd
       0.04401422 -0.12685947 -0.0037119538 -0.068729654
000020 c8 94 c9 bd a6 cb 69 bc 9f f8 e9 3b 48 03 26 3d
       -0.09842831 -0.014269745 0.0071402336 0.040530473
000030 20 2a 83 bd cf 6a 87 bd 33 d6 a8 3d ad 58 9d bd
       -0.06404519 -0.06612169 0.0824398 -0.07682929
000040 9f d3 d7 3c 09 fb 38 bb 5e e3 01 3e 9d 79 af bd
       0.026346026 -0.00282258 0.1268439 -0.08568118
000050 19 56 c1 bd fb e8 4c bd f2 f3 88 bd f2 50 0d be
       -0.0944025 -0.050026875 -0.06687154 -0.1380041
000060 82 f9 b3 bd be d9 ad bd f5 1f bf bd 70 a3 89 3d
       -0.08787824 -0.08488797 -0.09332267 0.06720626
000070 2a 1e 94 bd 70 7e 04 3d 35 a2 5d 3b 4d a7 5e bc
       -0.07232316 0.032347143 0.0033818607 -0.013589692
000080 f2 fd 2d bd 81 93 f4 3a 85 90 25 3d 76 17 8f 3d
       -0.04247851 0.0018659682 0.040421028 0.06986897
000090 6e bd f8 3c b3 a7 fc 3c a3 f2 8a 3d 6e 6e 64 3d
       0.030363765 0.030841684 0.067845605 0.055769376
0000a0 a4 4e 94 3d c7 bf de bc eb ad fd 3c 71 ea 19 3d
       0.07241562 -0.027191056 0.03096672 0.037577096
0000b0 50 bf 42 3d 49 5d 71 3c da 36 81 bd 86 76 a0 bd
       0.04754573 0.014731714 -0.0630929 -0.078351066
0000c0 50 f7 bb bd 22 11 cf 3c 01 fc 2b bc a3 aa cf ba
       -0.091780305 0.025276724 -0.010497094 -0.00158437
0000d0 6e 99 7f bd a6 32 9b bb bd e2 cc 3d 65 96 ed bc
       -0.06240218 -0.0047362624 0.100041844 -0.029002378
0000e0 7f fe 8c 3d db 97 50 bb b5 a5 fc bc 5a 52 c9 3a
       0.06884479 -0.0031828794 -0.030840734 0.0015359626
0000f0 2b 60 02 3c 64 e5 3f bd 4e f1 10 bd 83 48 8a 3c
       0.007957499 -0.046849623 -0.035386376 0.01688028
000100 c2 aa a1 bc 57 eb 84 3d 8f a1 d6 bc de 00 14 bd
       -0.019734744 0.064902 -0.026200084 -0.03613364
000110 16 b9 32 bd 91 6d 96 3d 67 8f 21 bd a9 81 8b 3d
       -0.043633543 0.07345117 -0.0394434 0.0681184
000120 b2 89 0f 3d 26 29 e4 3b b9 64 78 3d ba c1 d9 3c
       0.035043426 0.006962913 0.06064293 0.026581634
000130 de 23 78 3d 7e a9 81 3d 13 c6 e3 bc 37 e5 93 bd
       0.06058108 0.06331156 -0.02780441 -0.07221454
000140 0d 5f 89 3c 06 a1 c7 3d 08 ad be 3d 9d 46 53 3d
       0.016768957 0.0974751 0.09310347 0.051581014
000150 d4 35 ac 3d 71 f9 c7 3d d5 87 d4 3c cc 72 fc 3d
       0.084087044 0.09764374 0.025943676 0.12326583
000160 f0 f5 41 bd e3 af ac 3d cd 8f 2a 3d 93 21 11 3d
       -0.047353685 0.08431985 0.041641045 0.03543241
000170 2d 7d 4c bc 3b 76 34 3d e8 85 b7 3d 52 06 df bc
       -0.012481016 0.044058066 0.089610875 -0.027224693
000180 ee da 98 bb 9b 6e 3f 3d 63 8d a0 3b c0 4b 69 3d
       -0.0046647703 0.04673634 0.004899667 0.056957006
000190 85 dc d0 3c 7d 0e 73 3d 97 73 61 3d e4 b5 70 bc
       0.025495777 0.05933999 0.055041876 -0.014691804
0001a0 b4 f2 47 3d a0 ee 91 3d c8 2c c1 3c 35 31 4a 3d
       0.048815444 0.07125592 0.023580924 0.049363334
0001b0 20 20 5f 3c 67 b4 bd 3a 94 ff 0a 3d e0 35 7b bd
       0.013618499 0.001447332 0.033935145 -0.061330676
0001c0 cc 61 61 bc a4 27 b9 bd ae f7 b1 bc 7c 10 ab bd
       -0.013756227 -0.09040764 -0.021724548 -0.083527535
0001d0 65 77 eb bd 16 ee 77 3e 5a 5e 22 be 52 29 ae bd
       -0.11497382 0.24211916 -0.15856305 -0.08503975
0001e0 16 5c 7c bd 67 9d 30 be b2 6a ab bd 7d fd 2f bd
       -0.061611257 -0.17247544 -0.0836996 -0.042966355
0001f0 a6 c5 b3 bc d5 b0 9d bd 1e 9c 09 3d 63 d5 f6 3c
       -0.021944832 -0.07699744 0.03359615 0.030131048
000200 e5 84 82 3d 30 0c 11 bd b9 19 79 bc 41 64 35 3b
       0.06373004 -0.035412014 -0.015203887 0.0027678164
000210 3c b8 70 3c d2 80 af bc f7 07 8f 3b b2 c7 58 3d
       0.014692362 -0.021423731 0.004364963 0.05292482
000220 d7 ea c1 b8 62 39 ae 3d 65 fd d8 3d 1b 72 a4 3d
       -9.2466995e-05 0.08507039 0.10595206 0.080295764
000230 75 57 3d bc b0 12 ab 3c 4c 07 58 bc d2 d8 83 bb
       -0.011556496 0.020882934 -0.013185333 -0.0040236497
000240 af 0c 63 3d 17 36 1c 3d 8c e3 a3 3d 7c f2 db 3d
       0.055432018 0.03813752 0.080023855 0.107396096
000250 8a cf 68 3d 8c 34 8a bd 2c 04 ab 3d 21 22 86 ba
       0.05683855 -0.06748304 0.08350405 -0.001023356
000260 a7 7b c1 bb 72 93 8d 3d 1e 3c 77 bc cb cb e4 3a
       -0.005904633 0.069128886 -0.015090017 0.0017455755
000270 70 c4 8a 3c 7a 48 74 3c 59 5a 5e 3d bd 56 bf bc
       0.016939372 0.014909858 0.05428538 -0.02335679
000280 35 1c bd 3c 64 bc e5 bb 34 33 e5 3a 18 60 15 3d
       0.02308474 -0.0070109833 0.0017486573 0.036468595
000290 23 92 22 bd f8 fe e3 3c 81 08 7b bd 3e a2 95 3d
       -0.039690148 0.02783154 -0.061287407 0.07306336
0002a0 0a 97 27 3d d0 49 00 3d 37 d6 24 bd c6 c1 36 bd
       0.040915526 0.031320393 -0.040243354 -0.04461839
0002b0 44 6d 90 3d 31 31 7f 3c 73 9c e2 3b 2c 43 9e bb
       0.07052091 0.015575693 0.006915623 -0.004829785
0002c0 17 24 de 3c 00 27 06 3d e9 0d 45 bd 78 a1 bf bc
       0.027116818 0.032752037 -0.04810897 -0.023392424
0002d0 1e dd 30 bd a6 84 03 bc cc 0a 0f 3d 6d 9c af bd
       -0.043179624 -0.008027231 0.034922406 -0.08574758
0002e0 c6 92 0b bd 88 b1 d1 bc f6 89 18 bd 8a c3 c2 3c
       -0.03407552 -0.025597349 -0.037240945 0.02377488
0002f0 bb 82 c7 3a b2 f5 00 3e 16 43 70 bc 4a 77 c2 bc
       0.0015221456 0.12593725 -0.014664432 -0.023738522
000300 05 66 19 bd ae b0 bc bb 1c bb 4a 3c 0f 6b 5c bd
       -0.03745081 -0.0057583665 0.012373712 -0.053813037
000310 38 5d f6 bc e1 46 4a bd ff 2a 89 bb 24 b1 2b 3d
       -0.030073747 -0.049384 -0.0041860337 0.04191698
000320 98 c4 e4 bc 80 59 f3 3b da eb 66 3d 98 63 16 bd
       -0.027925774 0.0074264407 0.05637727 -0.036716074
000330 09 c6 9d 3d 68 04 a3 3d f4 58 86 3d b9 d3 4a 3c
       0.07703788 0.07959825 0.06559935 0.01237958
000340 7c bf 97 3b fb 0e 04 3c 24 ee 7f 3d c8 3e f3 bc
       0.004630981 0.008060212 0.062482968 -0.029693022
000350 ed ac c8 3b f5 40 59 3c 9b 60 25 bb 08 93 14 3d
       0.00612413 0.013260116 -0.0025234583 0.036273032
000360 98 a5 d8 bc a1 c7 91 bb ae f9 08 3e da 7c fa 3d
       -0.026446149 -0.0044488464 0.13376495 0.12230845
000370 f3 99 96 bc 5b 13 0d bc 8b e0 be bc cd ec 0d 3d
       -0.018383956 -0.008610572 -0.02330043 0.03464966
000380 b6 3d 41 bc 89 1b 85 bc 09 45 51 bc 66 70 4b 3c
       -0.011794498 -0.016248481 -0.012772807 0.012416935
000390 f6 e5 93 bc aa 88 00 3d fe 7b f3 bb 14 08 1d bc
       -0.01805399 0.031380333 -0.0074305525 -0.0095844455
0003a0 f3 cd eb bc 98 5b 35 bd 1d 60 60 3d 1a 18 37 bd
       -0.028784728 -0.044276804 0.05477916 -0.04470072
0003b0 02 a5 7a 3d ef 47 9b 3d 1c 58 79 bc 5a aa 39 3d
       0.06119252 0.075820796 -0.015218761 0.045328476
0003c0 fc 5b 44 3d c3 54 37 bd 6b bc 3c 3d 9f 13 50 3c
       0.047939286 -0.04475857 0.046078127 0.0126999905
0003d0 d2 98 a4 bb ba fa 6f 3d d7 30 54 bd c0 83 a7 bb
       -0.0050231004 0.05858872 -0.05180439 -0.0051121414
0003e0 22 ff ad 3d d2 5a 86 ba e2 dc 08 bd dc 50 4d bd
       0.08495928 -0.0010250455 -0.033413775 -0.05012594
0003f0 75 77 57 bc 15 a4 ef 3c 48 aa 98 3d 60 79 1c 3c
       -0.013151039 0.029253045 0.074543536 0.009550422

conv4.regular_conv.bias f4 [32]
000000 2c 5b bc 3c 2f 00 4b bd 30 38 04 bd 5c 67 da 3d
       0.022992693 -0.049560722 -0.032280147 0.106642455
000010 6f 30 0e bd f4 20 72 bd c3 fa 71 3d d2 92 78 bd
       -0.03471416 -0.059113458 0.059077036 -0.060686894
000020 cc be 47 3d cd 52 bb bc 37 a2 94 3d d6 eb 2f 3d
       0.048765942 -0.02286663 0.072575025 0.04294952
000030 16 c3 21 bd 46 07 30 bd 83 73 9e 3d 33 55 38 bc
       -0.03949269 -0.042975686 0.07736876 -0.011250782
000040 0b 7c c7 bc fe de b2 3c a5 c2 77 bc 74 29 6d 3d
       -0.02435114 0.021834847 -0.0151220905 0.05790086
000050 c7 a9 81 3d 28 0d c8 3c a1 a1 48 3d 19 e9 8a 3d
       0.063312106 0.024420336 0.048982266 0.06782741
000060 76 44 27 bc 2d 34 15 3d ae cc 5a 3d df 46 83 3d
       -0.010209193 0.03642671 0.053417854 0.06410002
000070 24 4d 69 bb 34 83 92 3d bf 0a 6f 3c dc 05 88 3c
       -0.0035598958 0.07153931 0.014589964 0.016604356
